…
 test_accuracy_64_to_128_with_batchnorm = modified_model_64_to_128_with_batchnorm.evaluate(x_test_resized, y_test, verbose=0)\nprint(\"Test Loss (Modified Model with Batch Normalization):\", test_loss_64_to_128_with_batchnorm)\nprint(\"Test Accuracy (Modified Model with Batch Normalization):\", test_accuracy_64_to_128_with_batchnorm) \n```", "```py\n\"sequential_1\"\n_________________________________________________________________\n Layer (type)                Output Shape              Param #   \n=================================================================\n conv2d_5 (Conv2D)           (None, 30, 30, 32)        896       \n\n batch_normalization (Batch  (None, 30, 30, 32)        128       \n Normalization)                                                  \n\n max_pooling2d_3 (MaxPoolin  (None, 15, 15, 32)        0         \n g2D)                                                            \n\n conv2d_6 (Conv2D)           (None, 13, 13, 64)        18496     \n\n batch_normalization_1 (Bat  (None, 13, 13, 64)        256       \n chNormalization)                                                \n\n max_pooling2d_4 (MaxPoolin  (None, 6, 6, 64)          0         \n g2D)                                                            \n\n conv2d_7 (Conv2D)           (None, 4, 4, 64)          36928     \n\n conv2d_8 (Conv2D)           (None, 4, 4, 128)         73856     \n\n batch_normalization_2 (Bat  (None, 4, 4, 128)         512       \n chNormalization)                                                \n\n max_pooling2d_5 (MaxPoolin  (None, 2, 2, 128)         0         \n g2D)                                                            \n\n conv2d_9 (Conv2D)           (None, 2, 2, 128)         147584    \n\n batch_normalization_3 (Bat  (None, 2, 2, 128)         512       \n chNormalization)                                                \n\n max_pooling2d_6 (MaxPoolin  (None, 1, 1, 128)         0         \n g2D)                                                            \n\n flatten_1 (Flatten)         (None, 128)               0         \n\n dense_2 (Dense)             (None, 64)                8256      \n\n batch_normalization_4 (Bat  (None, 64)                256       \n chNormalization)                                                \n\n dense_3 (Dense)             (None, 10)                650       \n\n=================================================================\nTotal params: 288330 (1.10 MB)\nTrainable params: 287498 (1.10 MB)\nNon-trainable params: 832 (3.25 KB) \n```", "```py\n# Import optimizers\nfrom tensorflow.keras.optimizers import SGD, Adam, RMSprop\n# Define the optimizers\noptimizers = [SGD(), Adam(), RMSprop()]\n# Define lists to store test accuracies for each optimi
…
                                   callbacks=[lr_decay_callback],\n                                      verbose=1) \n```", "```py\nModel Summary: \nModel: \"model_1\"\n__________________________________________________________________________________________________\n Layer (type)                Output Shape                 Param #   Connected to                  \n==================================================================================================\n input_2 (InputLayer)        [(None, 32, 32, 3)]          0         []                            \n\n conv2d_20 (Conv2D)          (None, 32, 32, 64)           1792      ['input_2[0][0]']             \n\n batch_normalization_20 (Ba  (None, 32, 32, 64)           256       ['conv2d_20[0][0]']           \n tchNormalization)                                                                                \n\n activation_10 (Activation)  (None, 32, 32, 64)           0         ['batch_normalization_20[0][0]\n                                                                    ']                            \n\n conv2d_21 (Conv2D)          (None, 32, 32, 64)           36928     ['activation_10[0][0]']       \n\n batch_normalization_21 (Ba  (None, 32, 32, 64)           256       ['conv2d_21[0][0]']           \n tchNormalization)                                                                                \n\n activation_11 (Activation)  (None, 32, 32, 64)           0         ['batch_normalization_21[0][0]\n                                                                    ']                            \n\n conv2d_22 (Conv2D)          (None, 32, 32, 64)           36928     ['activation_11[0][0]']       \n\n batch_normalization_22 (Ba  (None, 32, 32, 64)           256       ['conv2d_22[0][0]']           \n tchNormalization)                                                                                \n\n add_4 (Add)                 (None, 32, 32, 64)           0         ['batch_normalization_22[0][0]\n                                                                    ',                            \n                                                                     'activation_10[0][0]']       \n\n activation_12 (Activation)  (None, 32, 32, 64)           0         ['add_4[0][0]']               \n\n conv2d_23 (Conv2D)          (None, 32, 32, 64)           36928     ['activation_12[0][0]']       \n\n batch_normalization_23 (Ba  (None, 32, 32, 64)           256       ['conv2d_23[0][0]']           \n tchNormalization)                                                                                \n\n activation_13 (Activation)  (None, 32, 32, 64)           0         ['batch_normalization_23[0][0]\n                                                                    ']                            \n\n conv2d_24 (Conv2D)          (None, 32, 32, 64)           36928     ['activation_13[0][0]']       \n\n batch_normalization_24 (Ba  (None, 32, 32, 64)           256       ['conv2d_24[0][0]']           \n tchNormalization)                                                                                \n\n add_5 (Add)                 (None, 32, 32, 64)           0         ['batch_normalization_24[0][0]\n                                                                    ',                            \n                                                                     'activation_12[0][0]']       \n\n activation_14 (Activation)  (None, 32, 32, 64)           0         ['add_5[0][0]']               \n\n conv2d_25 (Conv2D)          (None, 32, 32, 64)           36928     ['activation_14[0][0]']       \n\n batch_normalization_25 (Ba  (None, 32, 32, 64)           256       ['conv2d_25[0][0]']           \n tchNormalization)                                                                                \n\n activation_15 (Activation)  (None, 32, 32, 64)           0         ['batch_normalization_25[0][0]\n                                                                    ']                            \n\n conv2d_26 (Conv2D)          (None, 32, 32, 64)           36928     ['activation_15[0][0]']       \n\n batch_normalization_26 (Ba  (None, 32, 32, 64)           256       ['conv2d_26[0][0]']           \n tchNormalization)                                                                                \n\n add_6 (Add)                 (None, 32, 32, 64)           0         ['batch_normalization_26[0][0]\n                                                                    ',                            \n                                                                     'activation_14[0][0]']       \n\n activation_16 (Activation)  (None, 32, 32, 64)           0         ['add_6[0][0]']               \n\n conv2d_27 (Conv2D)          (None, 32, 32, 64)           36928     ['activation_16[0][0]']       \n\n batch_normalization_27 (Ba  (None, 32, 32, 64)           256       ['conv2d_27[0][0]']           \n tchNormalization)                                                                                \n\n activation_17 (Activation)  (None, 32, 32, 64)           0         ['batch_normalization_27[0][0]\n                                                                    ']                            \n\n conv2d_28 (Conv2D)          (None, 32, 32, 64)           36928     ['activation_17[0][0]']       \n\n batch_normalization_28 (Ba  (None, 32, 32, 64)           256       ['conv2d_28[0][0]']           \n tchNormalization)                                                                                \n\n add_7 (Add)                 (None, 32, 32, 64)           0         ['batch_normalization_28[0][0]\n                                                                    ',                            \n                                                                     'activation_16[0][0]']       \n\n activation_18 (Activation)  (None, 32, 32, 64)           0         ['add_7[0][0]']               \n\n max_pooling2d_9 (MaxPoolin  (None, 16, 16, 64)           0         ['activation_18[0][0]']       \n g2D)                                                                                             \n\n flatten_3 (Flatten)         (None, 16384)                0         ['max_pooling2d_9[0][0]']     \n\n dense_6 (Dense)             (None, 512)                  8389120  \n['flatten_3[0][0]']           \n\n batch_normalization_29 (Ba  (None, 512)                  2048      ['dense_6[0][0]']             \n tchNormalization)                                                                                \n\n activation_19 (Activation)  (None, 512)                  0         ['batch_normalization_29[0][0]\n                                                                    ']                            \n\n dense_7 (Dense)             (None, 10)                   5130      ['activation_19[0][0]']       \n\n==================================================================================================\nTotal params: 8695818 (33.17 MB)\nTrainable params: 8693642 (33.16 MB)\nNon-trainable params: 2176 (8.50 KB) \n```"]