…
 "```py\nmodel_path = **get_file**('CNN_Base_MaskedFace_Net.hdf5',\\\n    'https://github.com/PacktPublishing/Interpretable-Machine- \\\n    Learning-with-Python/blob/master/models/ \\\n    CNN_Base_MaskedFace_Net.hdf5?raw=true')\nbase_model = tf.keras.models.**load_model**(model_path)\nbase_model.**summary**() \n```", "```py\nModel: \"CNN_Base_MaskedFaceNet_Model\"\n_________________________________________________________________\nLayer (type)                 Output Shape              Param #   \n=================================================================\nconv2d_1 (Conv2D)            (None, 126, 126, 16)      448       _________________________________________________________________\nmaxpool2d_1 (MaxPooling2D)   (None, 63, 63, 16)        0         \n_________________________________________________________________\nconv2d_2 (Conv2D)            (None, 61, 61, 32)        4640      \n_________________________________________________________________\nmaxpool2d_2 (MaxPooling2D)   (None, 30, 30, 32)        0         \n_________________________________________________________________\nconv2d_3 (Conv2D)            (None, 28, 28, 64)        18496     \n_________________________________________________________________\nmaxpool2d_3 (MaxPooling2D)   (None, 14, 14, 64)        0         \n_________________________________________________________________\nconv2d_4 (Conv2D)            (None, 12, 12, 128)       73856     \n_________________________________________________________________\nmaxpool2d_4 (MaxPooling2D)   (None, 6, 6, 128)         0         \n_________________________________________________________________\nflatten_6 (Flatten)          (None, 4608)              0         \n_________________________________________________________________\ndense_1 (Dense)              (None, 768)               3539712   \n_________________________________________________________________\ndropout_6 (Dropout)          (None, 768)               0         \n_________________________________________________________________\ndense_2 (Dense)              (None, 3)                 2307      \n=================================================================\nTotal params: 3,639,459\nTrainable params: 3,639,459\nNon-trainable params: 0\n_________________________________________________________________ \n```", "```py\ny_test_pred, y_test_prob = mldatasets.**evaluate_multiclass_mdl**(\n    base_model,\n    X_test,\n    y_test,\n    labels_l,\n    ohe,\n    plot_conf_matrix=True,\n
…
,\n    tf.keras.layers.**Dropout**(0.2),\n    tf.keras.layers.**Dense**(3, activation='softmax')\n], name='CNN_Robust_MaskedFaceNet_Model')\nrobust_model.**compile**(\n    optimizer=tf.keras.optimizers.Adam(lr=0.001),\n    loss='categorical_crossentropy',\n    metrics=['accuracy'])\nrobust_model.**summary**() \n```", "```py\nModel: \"CNN_Robust_MaskedFaceNet_Model\"\n_________________________________________________________________\nLayer (type)                 Output Shape              Param #   \n=================================================================\nconv2d_1 (Conv2D)            (None, 126, 126, 32)      896       \n_________________________________________________________________\nmaxpool2d_1 (MaxPooling2D)   (None, 63, 63, 32)        0         \n_________________________________________________________________\nconv2d_2 (Conv2D)            (None, 61, 61, 32)        9248      \n_________________________________________________________________\nmaxpool2d_2 (MaxPooling2D)   (None, 30, 30, 32)        0         \n_________________________________________________________________\nconv2d_3 (Conv2D)            (None, 28, 28, 32)        9248      \n_________________________________________________________________\nmaxpool2d_3 (MaxPooling2D)   (None, 14, 14, 32)        0         \n_________________________________________________________________\nconv2d_4 (Conv2D)            (None, 12, 12, 32)        9248      \n_________________________________________________________________\nmaxpool2d_4 (MaxPooling2D)   (None, 6, 6, 32)          0         \n_________________________________________________________________\nflatten (Flatten)            (None, 1152)              0         \n_________________________________________________________________\ndense_1 (Dense)              (None, 3072)              3542016   \n_________________________________________________________________\ndropout (Dropout)            (None, 3072)              0         \n_________________________________________________________________\ndense_2 (Dense)              (None, 3)                 9219      \n=================================================================\nTotal params: 3,579,875\nTrainable params: 3,579,875\nNon-trainable params: 0\n_________________________________________________________________ \n```", "```py\nrobust_classifier = **KerasClassifier**(\n    model=robust_model, clip_values=(min_, max_)\n)\nattacks = **BasicIterativeMethod**(\n    robust_classifier, eps=0.3, 
…
