["```py\nimport helpers\nreload(helpers)\n```", "```py\nmodel = helpers.build_model('images/Van_Gogh-Starry_Night.jpg')\n```", "```py\nmodel.load_weights('data/van-gogh-starry-night_style.h5')\n```", "```py\nmodel.summary()\n```", "```py\n____________________________________________________________________\nLayer (type) Output Shape Param # Connected to \n====================================================================\ninput_1 (InputLayer) (None, 320, 320, 3) 0 \n____________________________________________________________________\nzero_padding2d_1 (ZeroPadding2D) (None, 400, 400, 3) 0 input_1[0][0] \n____________________________________________________________________\nconv2d_1 (Conv2D) (None, 400, 400, 64) 15616 zero_padding2d_1[0][0] \n____________________________________________________________________\nbatch_normalization_1 (BatchNorm (None, 400, 400, 64) 256 conv2d_1[0][0] \n____________________________________________________________________\nactivation_1 (Activation) (None, 400, 400, 64) 0 batch_normalization_1[0][0] \n____________________________________________________________________\n...\n...\n____________________________________________________________________\nres_crop_1 (Lambda) (None, 92, 92, 64) 0 add_1[0][0] \n____________________________________________________________________\n...\n... \n____________________________________________________________________\nrescale_output (Lambda) (None, 320, 320, 3) 0 conv2d_16[0][0] \n====================================================================\nTotal params: 552,003\nTrainable params: 550,083\nNon-trainable params: 1,920\n```", "```py\ndef res_crop(x):\n    return x[:, 2:-2, 2:-2] \n```", "```py\nres_crop_3_layer = [layer for layer in model.layers if layer.name == 'res_crop_3'][0] \n\nprint(\"res_crop_3_layer input shape {}, output shape {}\".format(
…
