…
rints output shape\n Use this to analyse convolution parameters\n \"\"\"\n # create input with given shape \n x = Input(shape=(512,512,3))\n\n # create a convolution layer\n y = Conv2D(filters=32, \n kernel_size=(5,5), \n strides=1, padding=\"same\",\n use_bias=False)(x)\n\n # create model \n model = Model(inputs=x, outputs=y)\n\n # prints our model created\n model.summary()\n\nprint_model()\n```", "```py\n_________________________________________________________________\nLayer (type) Output Shape Param #\n=================================================================\ninput_1 (InputLayer) (None, 512, 512, 3) 0\n_________________________________________________________________\nconv2d_1 (Conv2D) (None, 512, 512, 32) 2400\n=================================================================\nTotal params: 2,400\nTrainable params: 2,400\nNon-trainable params: 0\n_________________________________________________________________\n```", "```py\n_________________________________________________________________\nLayer (type) Output Shape Param #\n=================================================================\ninput_1 (InputLayer) (None, 512, 512, 3) 0\n_________________________________________________________________\nconv2d_1 (Conv2D) (None, 256, 256, 32) 2400\n=================================================================\nTotal params: 2,400\nTrainable params: 2,400\nNon-trainable params: 0\n_________________________________________________________________\n```", "```py\n_________________________________________________________________\nLayer (type) Output Shape Param #\n=================================================================\ninput_1 (InputLayer) (None, 512, 512, 3) 0\n_________________________________________________________________\nconv2d_1 (Conv2D) (None, 128, 128, 32) 2400\n=================================================================\nTotal params: 2,400\nTrainable params: 2,400\nNon-trainable params: 0\n_________________________________________________________________ \n```", "```py\n_________________________________________________________________\nLayer (type) Output Shape Param #\n=================================================================\ninput_1 (InputLayer) (None, 512, 512, 3) 0\n_________________________________________________________________\nconv2d_1 (Conv2D) (None, 508, 508, 32) 2400\n=================================================================\nTotal params: 2,400\nTrainable params: 2,400\nNon-trainable params: 0\n_________________________________________________________________\n```", "```py\n_________________________________________________________________\nLayer (type) Output Shape Param #\n=================================================================\ninput_1 (InputLayer) (None, 512, 512, 3) 0\n_________________________________________________________________\nconv2d_1 (Conv2D) (None, 512, 512, 32) 2432\n=================================================================\nTotal params: 2,432\nTrainable params: 2,432\nNon-trainable params: 0\n_________________________________________________________________\n```", "```py\nfrom keras.layers import Conv2D, Input, Activation\nfrom keras.models import Model\n\ndef print_model():\n \"\"\"\n Creates a sample model and prints output shape\n Use this to an
…
n # create input with given shape \n x = Input(shape=(512,512,3))\n\n # create a convolution layer\n conv = Conv2D(filters=32, \n kernel_size=(5,5), activation=\"relu\", \n strides=1, padding=\"same\",\n use_bias=True)(x)\n\n pool = MaxPooling2D(pool_size=(2,2))(conv)\n\n # create model \n model = Model(inputs=x, outputs=pool)\n\n # prints our model created\n model.summary()\n\nprint_model()\n```", "```py\n_________________________________________________________________\nLayer (type) Output Shape Param #\n=================================================================\ninput_1 (InputLayer) (None, 512, 512, 3) 0\n_________________________________________________________________\nconv2d_1 (Conv2D) (None, 512, 512, 32) 2432\n_________________________________________________________________\nmax_pooling2d_1 (MaxPooling2 (None, 256, 256, 32) 0\n=================================================================\nTotal params: 2,432\nTrainable params: 2,432\nNon-trainable params: 0\n_________________________________________________________________\n```", "```py\nfrom keras.layers import Dense, Input\nfrom keras.models import Model\n\ndef print_model():\n \"\"\"\n Creates a sample model and prints output shape\n Use this to analyse dense/Fully Connected parameters\n \"\"\"\n # create input with given shape \n x = Input(shape=(512,))\n\n # create a fully connected layer layer\n y = Dense(32)(x)\n\n # create model \n model = Model(inputs=x, outputs=y)\n\n # prints our model created\n model.summary()\n\nprint_model()\n```", "```py\nLayer (type) Output Shape Param #\n=================================================================\ninput_1 (InputLayer) (None, 512) 0\n_________________________________________________________________\ndense_1 (Dense) (None, 32) 16416\n=================================================================\nTotal params: 16,416\nTrainable params: 16,416\nNon-trainable params: 0\n_________________________________________________________________\n```", "```py\nfrom keras.datasets import fashion_mnist\n(x_train, y_train), (x_test, y_test) = fashion_mnist.load_data()\n```", "```py\ndef conv3x3(input_x,nb_filters):\n \"\"\"\n Wrapper aro
…
nput(shape=(img_h, img_w, 1))\n\n x = conv3x3(inputs, 32)\n x = conv3x3(x, 32)\n x = MaxPooling2D(pool_size=(2,2))(x) \n x = conv3x3(x, 64)\n x = conv3x3(x, 64)\n x = MaxPooling2D(pool_size=(2,2))(x) \n x = conv3x3(x, 128)\n x = MaxPooling2D(pool_size=(2,2))(x) \n x = Flatten()(x)\n x = Dense(128, activation=\"relu\")(x)\n preds = Dense(nb_class, activation='softmax')(x)\n\n model = Model(inputs=inputs, outputs=preds)\n print(model.summary())\n return model\n```", "```py\nLayer (type) Output Shape Param #\n=================================================================\ninput_1 (InputLayer) (None, 28, 28, 1) 0\n_________________________________________________________________\nconv2d_1 (Conv2D) (None, 28, 28, 32) 288\n_________________________________________________________________\nconv2d_2 (Conv2D) (None, 28, 28, 32) 9216\n_________________________________________________________________\nmax_pooling2d_1 (MaxPooling2 (None, 14, 14, 32) 0\n_________________________________________________________________\nconv2d_3 (Conv2D) (None, 14, 14, 64) 18432\n_________________________________________________________________\nconv2d_4 (Conv2D) (None, 14, 14, 64) 36864\n_________________________________________________________________\nmax_pooling2d_2 (MaxPooling2 (None, 7, 7, 64) 0\n_________________________________________________________________\nconv2d_5 (Conv2D) (None, 7, 7, 128) 73728\n_________________________________________________________________\nmax_pooling2d_3 (MaxPooling2 (None, 3, 3, 128) 0\n_________________________________________________________________\nflatten_1 (Flatten) (None, 1152) 0\n_________________________________________________________________\ndense_1 (Dense) (None, 128) 147584\n_________________________________________________________________\ndense_2 (Dense) (None, 10) 1290\n=================================================================\nTotal params: 287,402\nTrainable params: 287,402\nNon-trainable params: 0\n_________________________________________________________________\n```", "```py\nimport keras \nimport keras.backend as K\nfrom keras.layers import Dense, Conv2D, Input, MaxPooling2D, Flatten\nfrom keras.models import Model\nfrom keras.datasets import fash
…
 print accuracy\nscore = model.evaluate(x_test, y_test, verbose=0)\nprint('Test loss:', score[0])\nprint('Test accuracy:', score[1])\n```", "```py\nfrom keras.applications.vgg16 import VGG16\n\ndef print_model():\n \"\"\"\n Loads VGGNet and prints model structure\n \"\"\"\n\n # create model \n model = VGG16(weights='imagenet')\n\n # prints our model created\n model.summary()\n\nprint_model()\n```", "```py\n_________________________________________________________________\nLayer (type) Output Shape Param #\n=================================================================\ninput_1 (InputLayer) (None, 224, 224, 3) 0\n_________________________________________________________________\nblock1_conv1 (Conv2D) (None, 224, 224, 64) 1792\n_________________________________________________________________\nblock1_conv2 (Conv2D) (None, 224, 224, 64) 36928\n_________________________________________________________________\nblock1_pool (MaxPooling2D) (None, 112, 112, 64) 0\n_________________________________________________________________\nblock2_conv1 (Conv2D) (None, 112, 112, 128) 73856\n_________________________________________________________________\nblock2_conv2 (Conv2D) (None, 112, 112, 128) 147584\n_________________________________________________________________\nblock2_pool (MaxPooling2D) (None, 56, 56, 128) 0\n_________________________________________________________________\nblock3_conv1 (Conv2D) (None, 56, 56, 256) 295168\n_________________________________________________________________\nblock3_conv2 (Conv2D) (None, 56, 56, 256) 590080\n_________________________________________________________________\nblock3_conv3 (Conv2D) (None, 56, 56, 256) 590080\n_________________________________________________________________\nblock3_pool (MaxPooling2D) (None, 28, 28, 256) 0\n_________________________________________________________________\nblock4_conv1 (Conv2D) (None, 28, 28, 512) 1180160\n_________________________________________________________________\nblock4_conv2 (Conv2D) (None, 28, 28, 512) 2359808\n_________________________________________________________________\nblock4_conv3 (Conv2D) (None, 28, 28, 512) 2359808\n_________________________________________________________________\nblock4_pool (MaxPooling2D) (None, 14, 14, 512) 0\n_________________________________________________________________\nblock5_conv1 (Conv2D) (None, 14, 14, 512) 2359808\n_________________________________________________________________\nblock5_conv2 (Conv2D) (None, 14, 14, 512) 2359808\n_________________________________________________________________\nblock5_conv3 (Conv2D) (None, 14, 14, 512) 2359808\n_________________________________________________________________\nblock5_pool (MaxPooling2D) (None, 7, 7, 512) 0\n_________________________________________________________________\nflatten (Flatten) (None, 25088) 0\n_________________________________________________________________\nfc1 (Dense) (None, 4096) 102764544\n_________________________________________________________________\nfc2 (Dense) (None, 4096) 16781312\n_________________________________________________________________\npredictions (Dense) (None, 1000) 4097000\n=================================================================\nTotal params: 138,357,544\nTrainable params: 138,357,544\nNon-trainable params: 0\n_________________________________________________________________\n```", "```py\nfrom keras.applications.inception_v3 import InceptionV3\n\ndef print_model():\n \"\"\"\n Loads InceptionV3 model and prints model structure\n \"\"\"\n\n # create model
…
